s9/assets/vanila-bn-model.onnx (onnx, 149916 bytes, 25 tensors)

feature.0.conv.0.conv1.conv.weight f4 [4, 3, 3, 3]
0.63407075 2.044804 1.0476911 -0.7572058 -0.7239077 -0.66380006 0.06376515 -1.2096453
-0.8649473 -0.16762759 0.8364814 0.33619982 -0.97582287 -0.81972057 -0.58520854 0.5693381
-0.75872236 -0.18269691 -0.31500128 0.5265538 -0.12883222 -0.4296473 -0.12824638 0.15106234
1.179578 0.019576827 0.05771322 -0.7008493 -0.46107805 0.6555597 -0.7853495 -0.62213546
1.4714637 0.9836514 -0.28138307 -0.6460134 -0.16694976 -0.28972873 1.5982579 -0.65053177
-0.6171872 2.0920804 1.0398209 -0.5642815 -0.4061291 -0.73962337 -0.83055174 0.8852695
-1.2422494 -0.9521063 1.290848 0.7281268 -0.54959023 -0.4054009 1.1073538 -0.4977448
-0.65796226 0.6663418 -0.9219588 1.2378411 0.5402632 0.4578243 0.68467313 -0.053327236
-0.84999436 0.38702667 -1.6357054 -2.6894524 -0.027228761 -0.5585169 -0.24482551 0.54820704
0.9241496 0.33044446 0.83363914 -0.5718349 -1.401583 0.2777362 0.1865458 0.10439293
0.6967595 -0.18721016 0.7278928 0.3462246 0.17008136 -0.433422 -0.36403668 0.26652732
-1.0067501 -0.5178923 -0.4834033 0.7817688 0.3250958 0.0036114117 -0.016544834 -0.26212463
0.16437307 -0.7601029 -0.8338578 -0.27309683 1.184502 0.4404148 0.10342358 0.460771
0.56895506 0.4764867 0.55797213 0.5115472
00000000: 7652 223f 12de 0240 be1a 863f 3dd8 41bf
00000010: 0452 39bf cdee 29bf 4e97 823d a8d5 9abf
00000020: 306d 5dbf 91a6 2bbe a523 563f 6222 ac3e
00000030: 87cf 79bf 35d9 51bf 3ad0 15bf 24c0 113f
00000040: a13b 42bf e614 3bbe d947 a1be 3bcc 063f
00000050: 98ec 03be bbfa dbbe 0553 03be 16b0 1a3e
00000060: 69fc 963f 955f a03c b364 6c3d dc6a 33bf
00000070: 6c12 ecbe c3d2 273f aa0c 49bf 4544 1fbf
00000080: ec58 bc3f 94d0 7b3f 7111 90be 2261 25bf
00000090: e1f4 2abe 5357 94be b793 cc3f 4089 26bf
000000a0: fbff 1dbf a5e4 0540 da18 853f c174 10bf
000000b0: 27f0 cfbe f557 3dbf 0a9f 54bf 06a1 623f
000000c0: 0702 9fbf 3dbd 73bf 823a a53f 8566 3a3f
000000d0: f2b1 0cbf b590 cfbe c5bd 8d3f 68d8 febe
000000e0: 3770 28bf 6095 2a3f 7e05 6cbf 9471 9e3f
000000f0: b04e 0a3f f267 ea3e bd46 2f3f a96d 5abd
00000100: 3b99 59bf 5c28 c63e cb5e d1bf fd1f 2cc0
00000110: da0e dfbc f7fa 0ebf 8ab3 7abe 4c57 0c3f
00000120: 1195 6c3f 0430 a93e 6069 553f c663 12bf
00000130: 1267 b3bf 7033 8e3e dd05 3f3e f6cb d53d
00000140: d55e 323f 05b4 3fbe 2f57 3a3f 5a44 b13e
00000150: cf29 2e3e 7de9 ddbe 0463 babe 4576 883e
00000160: 30dd 80bf 9794 04bf a380 f7be 0022 483f
00000170: f572 a63e 6fad 6c3b 0889 87bc 3335 86be
00000180: 6a51 283e 1b96 42bf b477 55bf 59d3 8bbe
00000190: c39d 973f 0c7e e13e becf d33d 2dea eb3e
000001a0: 0aa7 113f 11f6 f33e 43d7 0e3f c2f4 023f

feature.0.conv.0.conv2.conv.weight f4 [8, 4, 3, 3]
0.023038618 0.2419658 0.3953209 0.36460495 -0.17756979 -0.21790117 -0.052006207 0.14573076
-0.26337203 0.6750622 -1.5566941 -0.0751517 1.3495034 -1.6649956 0.21331105 1.1699086
-0.67480195 -0.3655961 0.4965347 -1.0761034 -0.1314973 0.73989916 -1.1593564 0.6599498
0.80784523 -0.8547211 0.14684145 0.59287584 0.07906704 -0.3435795 0.32143763 0.1753006
-0.4188656 -0.36679563 0.20184715 -0.024925867 0.4407661 0.34047514 -0.31496814 -0.27392125
0.08415276 -0.64601773 -0.19748202 -0.5233764 0.4003152 0.023926185 -0.87572134 -1.7062464
-0.23044015 0.80959654 -0.54847825 -0.678993 0.13863583 1.1507771 0.15701488 -0.8473153
-0.8444693 -0.35587642 0.043779027 -0.13935503 -0.07809932 0.360976 -0.12724699 1.1613513
0.9370515 -0.9338364 1.1368036 0.48588958 -0.9129117 -0.09758294 -0.5780628 -0.4498829
0.22220352 -0.3245086 -0.020212086 -0.37834498 -0.23113756 -0.6902348 -0.022114063 -0.1848263
0.31630418 1.499082 -1.1865717 -1.6075501 1.0039487 0.20830563 -0.1630995 -0.05039796
-0.21448253 1.6632054 0.11468755 -1.108895 0.0134646725 0.4062136 0.025509106 -0.017321168
0.50501317 0.14814383 -0.39599368 -0.7587705 0.016413061 0.5994401 -0.5464969 -0.06724998
-0.02570107 -0.37114272 -0.34717467 -0.0979292 0.54289865 0.9340915 0.8025076 0.94386435
0.5339626 0.06518379 -0.15726858 -0.30644608 -0.41665363 -0.004107577 -0.07530991 -0.15115437
-0.1544571 -0.28343886 -0.41571134 0.25439736 0.3109917 0.13039441 -0.7122787 -1.3445679
-1.4478534 0.9287677 0.8020354 -0.33547342 0.06834751 0.099594325 -0.46476775 0.17297073
0.7544328 0.93371385 -0.21003972 -0.41613108 -0.13146915 -0.70022726 -0.56489885 -0.37018588
-0.15068452 0.71926606 0.5631957 -0.24077553 0.2565079 0.9585728 0.23077926 -0.37133574
-0.25313768 0.09482946 1.5647554 0.18191648 -1.3116528 -0.5638795 0.3851569 0.15507095
-0.73741996 -0.5236556 -0.21704061 -0.121482916 -0.31289825 -0.090622365 0.03357916 0.24536532
0.0077470806 0.16875826 -0.04570288 -0.47925285 -0.066758394 -0.50688654 -0.39282897 -0.14928749
-0.6126674 0.40280065 0.1635992 -0.09806437 -0.04982323 -0.14540994 0.36805457 -0.054045387
-0.37589046 0.810038 0.279308 0.34628975 0.11125298 -0.3485219 0.4584844 -0.36360073
-1.0951968 -0.12859519 0.67006856 0.29978597 0.18361901 -0.13475361 -0.118933834 1.3432754
1.0358348 0.50123626 0.5405904 0.43489712 -0.22248948 -0.25878617 0.25795022 0.042672485
-0.00746464 -0.48425975 -0.06836607 -0.057782184 -0.17076153 0.5512761 0.6041644 0.3581048
-0.0060831024 -0.056277536 0.3610088 -0.5730249 -0.10682346 -0.09592137 -1.0791163 0.25049594
-0.024744516 -1.5427575 0.06461504 1.1390562 0.08403828 0.09404198 -0.1542548 1.3502157
-0.25920045 -0.94995314 0.51794237 -0.06244722 -1.2136099 1.3520391 -0.5825751 -0.3228981
0.23897023 -0.537658 0.60632056 0.2223617 -0.31127983 0.030592807 -0.2523022 -0.20865746
0.5546134 -0.6497344 -0.023803081 -0.10517513 0.71526575 -0.24415852 -0.2745155 0.6867719
00000000: 7cbb bc3c e2c5 773e 8067 ca3e 80ad ba3e
00000010: dbd4 35be 7c21 5fbe 7604 55bd 723a 153e
00000020: b3d8 86be e0d0 2c3f c141 c7bf 22e9 99bd
00000030: 87bc ac3f 931e d5bf 366e 5a3e 91bf 953f
00000040: d2bf 2cbf 692f bbbe cc39 fe3e c2bd 89bf
00000050: 3aa7 06be 086a 3d3f ca65 94bf 78f2 283f
00000060: f2ce 4e3f 01cf 5abf 9b5d 163e b6c6 173f
00000070: e6ed a13d a7e9 afbe 7993 a43e 0082 333e
00000080: 8d75 d6be a3cc bbbe 05b1 4e3e 5531 ccbc
00000090: 18ac e13e c252 ae3e 8143 a1be 683f 8cbe
000000a0: 4858 ac3d 6b61 25bf ba38 4abe fffb 05bf
000000b0: 1df6 cc3e d900 c43c 462f 60bf 4866 dabf
000000c0: 81f8 6bbe b841 4f3f 1269 0cbf 7cd2 2dbf
000000d0: 8df6 0d3e aa4c 933f 82c8 203e a8e9 58bf
000000e0: 242f 58bf 6f35 b6be a351 333d 16b3 0ebe
000000f0: 89f2 9fbd d9d1 b83e 094d 02be 29a7 943f
00000100: 9be2 6f3f e70f 6fbf c882 913f 85c6 f83e
00000110: 95b4 69bf 90d9 c7bd ecfb 13bf 0d57 e6be
00000120: 5289 633e fe25 a6be d193 a5bc 6fb6 c1be
00000130: 53af 6cbe 3ab3 30bf 8d28 b5bc 1b43 3dbe
00000140: 9ff2 a13e ebe1 bf3f 95e1 97bf 34c4 cdbf
00000150: 6481 803f 124e 553e 8e03 27be 176e 4ebd
00000160: 4fa1 5bbe eae3 d43f 4ee1 ea3d 45f0 8dbf
00000170: ee9a 5c3c 3bfb cf3e 79f8 d03c 1fe5 8dbc
00000180: 8b48 013f 04b3 173e afbf cabe c93e 42bf
00000190: af74 863c e874 193f 39e7 0bbf 5cba 89bd
000001a0: 0d8b d2bc 6b06 bebe e1c0 b1be 1b8f c8bd
000001b0: 68fb 0a3f 9f20 6f3f 2371 4d3f 18a1 713f
000001c0: c6b1 083f 147f 853d 040b 21be 80e6 9cbe
000001d0: a053 d5be da98 86bb 153c 9abd 36c8 1abe
000001e0: 012a 1ebe e61e 91be 1ed8 d4be 5f40 823e
000001f0: 4e3a 9f3e 1d86 053e e657 36bf cd1a acbf
00000200: 4353 b9bf b8c3 6d3f 3152 4d3f 2cc3 abbe
00000210: c8f9 8b3d 1cf8 cb3d 0af6 edbe 3d1f 313e
00000220: 8222 413f df07 6f3f a714 57be 220f d5be
00000230: d99f 06be 1842 33bf 369d 10bf 0189 bdbe
00000240: 0b4d 1abe d221 383f 982d 103f dc8d 76be
00000250: 0155 833e 0765 753f 6651 6c3e b81f bebe
00000260: 439b 81be f335 c23d e849 c83f 5048 3a3e
00000270: 3de4 a7bf 685a 10bf 4933 c53e ebca 1e3e
00000280: 8ec7 3cbf 4b0e 06bf e53f 5ebe 09cc f8bd
00000290: 3334 a0be 3898 b9bd 4d8a 093d 0c41 7b3e
000002a0: 39db fd3b f7ce 2c3e f132 3bbd a160 f5be
000002b0: a0b8 88bd 51c3 01bf e120 c9be d2de 18be
000002c0: c5d7 1cbf e33b ce3e 8c86 273e f9d5 c8bd
000002d0: 7113 4cbd 58e6 14be a671 bc3e b25e 5dbd
000002e0: b774 c0be a65e 4f3f 7501 8f3e e44c b13e
000002f0: 9ad8 e33d 7671 b2be 78be ea3e e029 babe
00000300: 692f 8cbf 75ae 03be 9d89 2b3f 8c7d 993e
00000310: 9f06 3c3e dafc 09be 9593 f3bd 73f0 ab3f
00000320: 3c96 843f 0551 003f 2264 0a3f d6aa de3e
00000330: 48d4 63be 9f7f 84be 0d12 843e 58c9 2e3d
00000340: f099 f4bb e5f0 f7be 8303 8cbd 03ad 6cbd
00000350: 1cdc 2ebe 6e20 0d3f 85aa 1a3f 8359 b73e
00000360: c354 c7bb 4683 66bd 25d6 b83e c3b1 12bf
00000370: 42c6 dabd 6c72 c4bd 7c20 8abf 0141 803e
00000380: 03b5 cabc 1479 c5bf e454 843d 98cc 913f
00000390: 431c ac3d 1599 c03d f8f4 1dbe ded3 ac3f
000003a0: ecb5 84be 2130 73bf df97 043f a8c8 7fbd
000003b0: 9257 9bbf 9e0f ad3f a423 15bf e652 a5be
000003c0: 9db4 743e f4a3 09bf d337 1b3f c9b2 633e
000003d0: 1260 9fbe c49d fa3c c12d 81be 4daa 55be
000003e0: 25fb 0d3f fe54 26bf aefe c2bc 0f66 d7bd
000003f0: a81b 373f b104 7abe 4c8d 8cbe 49d0 2f3f

feature.0.conv.0.squeeze.conv.weight f4 [8, 8, 1, 1]
-0.10090691 0.10553357 -0.32238975 1.1603242 0.26950982 -0.19873267 -0.07589027 -0.33776903
1.2873688 -0.74342555 0.35308143 -0.24344493 -0.39084736 -0.2136038 -0.16018714 -1.3777614
0.18778272 -0.57419497 -1.544593 -0.4342832 -0.35748258 -0.084127896 1.4183475 -0.32852855
-0.8695991 -0.39442328 -0.4050388 -0.656785 -1.1737795 0.76687914 0.8732841 -0.5920735
0.6351177 1.6637342 -1.0333517 -0.30961174 0.11180286 -0.39991668 -0.14804319 0.3450537
-1.3716022 0.98776865 1.0340229 0.2830974 -0.14991964 -0.17465134 -1.6892669 -0.42370495
0.23323075 0.37803105 -0.97764605 -0.09946626 -0.46279928 1.2093184 -0.8398652 -0.88752496
-0.10352617 -0.24176781 0.10739836 -0.3366814 0.9893242 0.66281605 -0.19637091 0.73171055
00000000: 48a8 cebd fc21 d83d 4510 a5be 8185 943f
00000010: 31fd 893e 9480 4bbe 5c6c 9bbd 10f0 acbe
00000020: 80c8 a43f 2351 3ebf 17c7 b43e a149 79be
00000030: 251d c8be f4ba 5abe 1908 24be 7c5a b0bf
00000040: 1d4a 403e 71fe 12bf 39b5 c5bf 5e5a debe
00000050: f507 b7be 3f4b acbd 698c b53f e534 a8be
00000060: 0c9e 5ebf d9f1 c9be 3f61 cfbe 1023 28bf
00000070: 683e 96bf 3152 443f 8c8f 5f3f 2192 17bf
00000080: 1397 223f 3ef5 d43f de44 84bf 6e85 9ebe
00000090: e6f8 e43d e1c1 ccbe a298 17be e1aa b03e
000000a0: a990 afbf 68de 7c3f dd5a 843f 24f2 903e
000000b0: 8984 19be cdd7 32be e639 d8bf dbef d8be
000000c0: 0bd4 6e3e 498d c13e 0347 7abf f7b4 cbbd
000000d0: 07f4 ecbe f2ca 9a3f 6801 57bf d634 63bf
000000e0: 8705 d4bd fb91 77be acf3 db3d 8161 acbe
000000f0: 5a44 7d3f 50ae 293f 7515 49be 6251 3b3f

feature.1.conv.0.conv1.conv.weight f4 [16, 8, 3, 3]
-0.07991759 0.23209164 0.14939028 -0.48388648 -0.1259659 0.03363988 -0.40062097 -0.049969107
-0.029459566 0.16588512 0.36278164 -0.087126255 0.0033657295 -0.0661196 0.067526184 -0.038186274
0.17153709 -0.0741574 -0.24708554 -0.040685296 0.06320458 -0.2200681 -0.26835313 0.11865653
-0.26514164 -0.13870867 0.086979955 -0.1653656 -0.06526118 -0.12604345 0.1394756 0.19153515
0.118778385 0.17266388 0.35038248 0.52717215 0.22500816 0.53351533 0.020633696 -0.19521305
-0.22788553 -0.6665449 -0.31906492 -0.0038383824 -0.46837944 -0.09454826 0.38149548 0.30731386
-0.35183722 -0.19337034 -0.15104336 -0.3018058 -0.3599993 -0.3853442 -0.11287156 -0.004583344
-0.10640334 -0.15670834 -0.24713168 -0.15524882 0.09646243 0.46971565 0.45479792 -0.66290236
-0.31858644 -0.6608746 -0.5473756 -0.29405668 -0.4410745 -0.03363104 0.5104071 0.072581306
0.17914203 0.12037809 0.24035311 -0.33884495 -0.25844112 -0.2460725 0.15446833 0.15887818
0.16041657 0.10597382 0.4331086 0.14030719 0.19246243 0.5222651 0.57793385 -0.05931955
0.39820504 -0.11196552 -0.24405168 -0.20631482 -0.20221315 -0.48409247 -0.21575162 -0.36989573
-0.3065933 0.13225076 -0.31384513 0.016345972 0.028087687 -0.008154376 0.15134211 0.42098275
0.11570586 -0.18198189 0.1621468 -0.030670809 -0.05594133 0.0326898 -0.020768443 -0.21459717
-0.15391636 -0.33461246 -0.0067946264 0.12956552 -0.050792996 -0.25167125 -0.11207223 -0.17116906
-0.32372352 -0.064561665 -0.11643854 -0.17937706 0.14281455 -0.055983968 -0.057427216 -0.033204585
0.20421688 0.1819593 0.28310874 0.023241451 -0.18333548 0.041129675 -0.13693385 -0.23361275
0.18145134 -0.060323678 -0.1290201 0.40585393 -0.18445952 -0.3154461 -0.0103999395 -0.23542872
0.0910415 0.063671604 -0.016747348 -0.06909351 -0.2523766 0.037575524 -0.16200225 -0.10861079
0.14380258 -0.5820922 -0.52484536 0.33334306 -0.7856377 -1.1269895 -0.79286987 -0.27362943
-0.53563684 -0.1390323 -0.20169005 -0.26240146 -0.07938422 -0.13521898 -0.32605603 0.004353723
0.012213861 -0.07273775 0.101831734 -0.0038420132 0.18558173 0.4019795 -0.040974494 -0.11708037
0.034460492 -0.0681735 -0.116727345 -0.2267424 -0.15574273 -0.5540765 -0.0912759 -0.10647936
-0.10457239 0.2268227 0.19652084 0.18654977 0.6143129 -0.38414598 -0.14625672 0.11290372
0.042297084 0.0039231507 0.24103744 0.39215875 0.12449451 0.2941075 -0.23366246 -0.25154236
0.12209357 -0.4271809 -0.4530765 -0.07724517 -0.028105393 0.0057989624 0.15666051 0.60586196
0.37259653 0.21476953 -0.008599749 -0.17697395 -0.036014434 0.009788182 0.027991543 0.26744285
-0.0028487854 -0.08984908 0.111389436 -0.25573507 -0.097608395 -0.17438732 0.32203397 -0.003928368
0.15072818 0.12330768 -0.0640331 -0.28529617 -0.021495864 -0.08161984 0.27436987 -0.03618408
-0.043142643 0.1676493 -0.24584785 -0.28144684 0.1274375 -0.44346645 -0.62034726 -0.023935795
-0.08778808 -0.22459456 -0.15682253 0.29008082 0.2223026 0.008990832 0.13333505 0.13333264
-0.045588747 -0.1725987 -0.14491522 -0.10573437 -0.35875878 -0.055967346 0.029066544 -0.13381308
00000000: d5ab a3bd 6ea9 6d3e c4f9 183e f8bf f7be
00000010: 34fd 00be f9c9 093d 311e cdbe 68ac 4cbd
00000020: 3055 f1bc cadd 293e 84be b93e 406f b2bd
00000030: 9293 5c3b b669 87bd 2b4b 8a3d 3669 1cbd
00000040: 6ba7 2f3e d6df 97bd fe03 7dbe a0a5 26bd
00000050: 6771 813d 8859 61be 9565 89be 3202 f33d
00000060: a5c0 87be a509 0ebe 8c22 b23d 9a55 29be
00000070: a7a7 85bd 8911 01be b1d2 0e3e ca21 443e
00000080: 1542 f33d cdce 303e 5565 b33e c1f4 063f
00000090: 8a68 663e 7694 083f ff07 a93c eee5 47be
000000a0: d35a 69be b0a2 2abf 7a5c a3be 5f8d 7bbb
000000b0: 6ecf efbe 85a2 c1bd 6053 c33e 3e58 9d3e
000000c0: 0224 b4be e002 46be 1cab 1abe 4a86 9abe
000000d0: d451 b8be d64b c5be 3429 e7bd e02f 96bb
000000e0: ffe9 d9bd 2778 20be 1610 7dbe 8cf9 1ebe
000000f0: 188e c53d 927e f03e 46db e83e f8b3 29bf
00000100: c31d a3be 142f 29bf cf20 0cbf 998e 96be
00000110: 84d4 e1be b4c0 09bd 0aaa 023f 82a5 943d
00000120: 0271 373e ca88 f63d 201f 763e 167d adbe
00000130: 6552 84be 6efa 7bbe f22c 1e3e f6b0 223e
00000140: 3e44 243e cd08 d93d 69c0 dd3e b0ac 0f3e
00000150: df14 453e 2ab3 053f 79f3 133f 0ef9 72bd
00000160: 88e1 cb3e 2e4e e5bd afe8 79be 3144 53be
00000170: f710 4fbe f8da f7be feed 5cbe f962 bdbe
00000180: ccf9 9cbe be6c 073e 4fb0 a0be fde7 853c
00000190: 2618 e63c ef99 05bc 6df9 1a3e 0d8b d73e
000001a0: 32f7 ec3d 7659 3abe d009 263e 5941 fbbc
000001b0: bc22 65bd bde5 053d 9522 aabc 5cbf 5bbe
000001c0: 409c 1dbe 5352 abbe 75a5 debb d3ac 043e
000001d0: 510c 50bd 0edb 80be 2086 e5bd f146 2fbe
000001e0: 17bf a5be e838 84bd 5477 eebd 9fae 37be
000001f0: fa3d 123e 724f 65bd cd38 6bbd 8801 08bd
00000200: 3b1e 513e 8a53 3a3e a1f3 903e db64 be3c
00000210: 4cbc 3bbe 9777 283d 6338 0cbe 2e38 6fbe
00000220: 61ce 393e f615 77bd d81d 04be 16cc cf3e
00000230: f5e2 3cbe 2782 a1be 8264 2abc 3a14 71be
00000240: f773 ba3d 4266 823d bc31 89bc e680 8dbd
00000250: 8137 81be cbe8 193d ebe3 25be 556f debd
00000260: fc40 133e ff03 15bf 445c 06bf f1ab aa3e
00000270: 8d1f 49bf 3141 90bf 85f9 4abf 2819 8cbe
00000280: 7f1f 09bf 7c5e 0ebe d687 4ebe 7c59 86be
00000290: 3294 a2bd d876 0abe d1f0 a6be ada9 8e3b
000002a0: a51c 483c 88f7 94bd 288d d03d 49ca 7bbb
000002b0: 2309 3e3e 42d0 cd3e dfd4 27bd d5c7 efbd
000002c0: 7226 0d3d 8c9e 8bbd bf0e efbd 292f 68be
000002d0: 067b 1fbe f5d7 0dbf dcee babd da11 dabd
000002e0: 0d2a d6bd 3644 683e c23c 493e e706 3f3e
000002f0: 9c43 1d3f c8ae c4be 52c4 15be 113a e73d
00000300: b53f 2d3d c68d 803b 85d2 763e 08c9 c83e
00000310: faf6 fe3d 4295 963e 3645 6fbe 29ca 80be
00000320: 320c fa3d 74b7 dabe a5f9 e7be b732 9ebd
00000330: 483d e6bc 3905 be3b 9d6b 203e c519 1b3f
00000340: f9c4 be3e 8bec 5b3e f6e5 0cbc a938 35be
00000350: df83 13bd 9c5e 203c 854e e53c 45ee 883e
00000360: b0b2 3abb cb02 b8bd 2520 e43d b5ef 82be
00000370: e9e6 c7bd 9792 32be a3e1 a43e 8ab9 80bb
00000380: 7d58 1a3e bd88 fc3d c923 83bd 5712 92be
00000390: 1818 b0bc 4d28 a7bd 357a 8c3e c235 14bd
000003a0: 57b6 30bd 42ac 2b3e 8abf 7bbe cd19 90be
000003b0: fa7e 023e 090e e3be 14cf 1ebf 0015 c4bc
000003c0: 3dca b3bd 1efc 65be 1696 20be 7985 943e
000003d0: 4ba3 633e 484e 133c fc88 083e 5a88 083e
000003e0: 44bb 3abd b7bd 30be a864 14be 438b d8bd
000003f0: 3baf b7be 043e 65bd f61c ee3c 4c06 09be

feature.1.conv.0.conv2.conv.weight f4 [32, 16, 3, 3]
0.14124018 0.31959033 -0.043395992 0.040102072 0.13219829 -0.16644113 -0.038752902 0.35488474
-0.087960556 -0.08021949 0.18861176 -0.115051925 0.20529468 0.2670219 -0.100526415 -0.018591695
-0.022632571 -0.26584753 0.12870468 0.10431518 0.13494517 0.25502497 0.21268037 0.19032833
-0.04027376 -0.27473426 -0.45794338 0.04138713 -0.06701748 0.024762195 0.16635737 -0.051819563
0.14981838 0.050982725 -0.12587184 -0.077155866 -0.21343474 -0.10963598 -0.2353771 -0.08774873
0.12134246 -0.030900357 -0.1755877 -0.19865717 -0.28880522 -0.19756277 0.27230114 -0.29123944
0.089953855 0.33196658 0.07054073 0.05461988 -0.04106854 -0.14650077 -0.13883913 -0.09350595
0.06905024 0.29633284 -0.13796501 0.20682006 0.028740989 -0.1395129 0.3408076 -0.106026895
0.050231427 -0.3564971 -0.035000972 0.61308897 -0.012334692 -0.07749264 0.07747259 -0.018801162
0.20981959 0.054733798 0.21377882 0.78551817 -0.0660875 -0.073811464 0.038171344 -0.42687503
-0.02074506 0.20464316 -0.053019635 -0.022249462 0.38965148 -0.08758775 0.19536401 -0.030246174
-0.07355393 -0.19178487 -0.10509101 0.060686182 -0.08065931 0.16193566 -0.024955023 0.023588762
-0.22037135 -0.11560809 -0.26049688 0.21846022 0.17129414 -0.12088966 0.16288237 0.23306768
0.16864283 0.22460118 0.24342093 0.19679569 0.116493024 -0.18362176 -0.047727145 0.044089723
-0.22129862 -0.18427147 -0.13199247 -0.17882748 -0.266804 -0.37358016 0.20043308 -0.12267492
-0.4090249 0.17000385 -0.20433117 -0.10012337 0.12485898 -0.25266472 0.15993108 0.23636316
0.04230434 0.18394482 0.111245036 -0.107935436 -0.41235265 -0.23967431 0.18045084 -0.004209377
0.30396175 -0.18148808 0.26082194 0.29111397 -0.017506568 -0.38438812 -0.35697287 -0.28158438
-0.3902717 -0.20583253 -0.01773589 -0.16259882 0.011646495 0.0640704 -0.049439237 -0.067703985
0.042858224 -0.0115942 -0.063301295 0.17508322 -0.23394044 -0.07377923 0.27249295 -0.10815473
-0.24881238 0.0071861222 0.22502603 -0.106491596 0.092114225 0.30615085 0.49532786 0.40394926
-0.018325914 0.19947147 0.29552627 -0.063855916 -0.029731266 0.14725684 -0.022656934 0.024965994
0.16634607 0.12086513 0.061697014 0.08211897 -0.0075208074 0.043551043 0.11836248 -0.20448042
0.033784755 0.088763766 -0.097539164 -0.17798044 -0.109673776 0.037310723 -0.08074739 -0.04621129
0.200109 0.053153656 0.023395445 -0.27616295 -0.11067396 0.14276262 0.13310207 0.0801944
-0.06578443 0.2387431 0.38148406 -0.16040511 0.109781906 0.20945047 -0.032863256 -0.14867887
-0.52544886 -0.3522735 -0.05050963 -0.45507267 -0.21465385 0.36391518 -0.023750992 -0.05008846
-0.12597562 0.15484548 0.20298022 -0.28230086 -0.25865984 0.16852914 -0.03657156 -0.24902406
-0.0026179163 -0.27823532 -0.08237571 0.05841515 -0.07059742 -0.13999094 0.052976925 0.123624586
0.029676655 0.15081106 -0.26375398 -0.0938647 0.17411399 0.050482504 -0.13875875 0.36811635
-0.033711016 0.008843664 0.16360018 0.03975079 -0.030360391 0.030725127 0.22760235 0.23304163
-0.2433953 0.05242538 0.047256403 -0.003775083 -0.08238218 -0.17142811 -0.052697346 7.65089e-05
00000000: 44a1 103e 58a1 a33e ffbf 31bd 1242 243d
00000010: fd5e 073e 8b6f 2abe 5dbb 1ebd 74b3 b53e
00000020: aa24 b4bd 1e4a a4bd 7123 413e 58a0 ebbd
00000030: c538 523e 18b7 883e cbe0 cdbd 9c4d 98bc
00000040: f167 b9bc 2b1d 88be 29cb 033e 32a3 d53d
00000050: 112f 0a3e a292 823e e2c8 593e 6ee5 423e
00000060: 19f6 24bd f8a9 8cbe 8e77 eabe 8d85 293d
00000070: 7640 89bd 16da ca3c 9659 2a3e c040 54bd
00000080: fd69 193e 43d3 503d 8ce4 00be e503 9ebd
00000090: a38e 5abe d488 e0bd b206 71be 9bb5 b3bd
000000a0: 6582 f83d bf22 fdbc 43cd 33be c96c 4bbe
000000b0: 47de 93be e54d 4abe 0e6b 8b3e 561d 95be
000000c0: ba39 b83d 86f7 a93e a977 903d 18b9 5f3d
000000d0: 7c37 28bd 4c04 16be d82b 0ebe 0c80 bfbd
000000e0: 366a 8d3d f0b8 973e b346 0dbe a3c8 533e
000000f0: 3972 eb3c 78dc 0ebe 557e ae3e a124 d9bd
00000100: 78bf 4d3d ca86 b6be 2e5d 0fbd 66f3 1c3f
00000110: 7317 4abc 76b4 9ebd f3a9 9e3d e504 9abc
00000120: f2da 563e 8c30 603d d6e8 5a3e b817 493f
00000130: e258 87bd 772a 97bd 8e59 1c3d 5d8f dabe
00000140: 8bf1 a9bc fa8d 513e 1e2b 59bd 8144 b6bc
00000150: 6680 c73e 3561 b3bd 810d 483e d3c6 f7bc
00000160: 71a3 96bd 4163 44be f539 d7bd 1392 783d
00000170: b530 a5bd 76d2 253e 7a6e ccbc 383d c13c
00000180: 07a9 61be efc3 ecbd d95f 85be 09b4 5f3e
00000190: bb67 2f3e 0095 f7bd a3ca 263e 4ba9 6e3e
000001a0: b5b0 2c3e dafd 653e 5643 793e cf84 493e
000001b0: e593 ee3d 5807 3cbe 8a7d 43bd 6d97 343d
000001c0: 1b9c 62be a9b1 3cbe 0929 07be 8d1e 37be
000001d0: 899a 88be e645 bfbe 543e 4d3e fd3c fbbd
000001e0: b66b d1be 7d15 2e3e 313c 51be 7b0d cdbd
000001f0: 11b6 ff3d 455d 81be f9c4 233e 2f09 723e
00000200: 5147 2d3d 085c 3c3e 70d4 e33d 410d ddbd
00000210: e31f d3be 2f6d 75be 1bc8 383e d0ee 89bb
00000220: e0a0 9b3e 03d8 39be 748a 853e e40c 953e
00000230: ef69 8fbc 85ce c4be 26c5 b6be d42b 90be
00000240: b1d1 c7be c3c5 52be db4a 91bc 4e80 26be
00000250: f1d0 3e3c 5837 833d cc80 4abd 63a8 8abd
00000260: 1b8c 2f3d 99f5 3dbc 1ca4 81bd 0449 333e
00000270: 158e 6fbe 9119 97bd 3284 8b3e 3a80 ddbd
00000280: acc8 7ebe 9079 eb3b 396d 663e 4418 dabd
00000290: 62a6 bc3d cebf 9c3e 9d9b fd3e 70d2 ce3e
000002a0: 3a20 96bc 4042 4c3e 384f 973e e4c6 82bd
000002b0: fc8e f3bc 7fca 163e 099b b9bc 7c85 cc3c
000002c0: a056 2a3e 2388 f73d 02b6 7c3d fe2d a83d
000002d0: 1b71 f6bb 9462 323d 0768 f23d 5163 51be
000002e0: e261 0a3d c7c9 b53d 9dc2 c7bd 8140 36be
000002f0: a59c e0bd 21d3 183d e35e a5bd 0d48 3dbd
00000300: 60e9 4c3e a6b7 593d cea7 bf3c 3b65 8dbe
00000310: 07a9 e2bd 5d30 123e e94b 083e f63c a43d
00000320: fdb9 86bd 1279 743e e151 c33e 3d41 24be
00000330: 56d5 e03d 2f7a 563e 9f9b 06bd 463f 18be
00000340: d183 06bf 315d b4be 30e3 4ebd 49ff e8be
00000350: 38ce 5bbe 1753 ba3e 7191 c2bc 8f29 4dbd
00000360: c1ff 00be d08f 1e3e 0cda 4f3e bd89 90be
00000370: 106f 84be e792 2c3e 0fcc 15bd 2a00 7fbe
00000380: 5991 2bbb dc74 8ebe 99b4 a8bd b944 6f3d
00000390: 6195 90bd c959 0fbe 55fe 583d e32e fd3d
000003a0: 751c f33c 376e 1a3e c30a 87be 233c c0bd
000003b0: f04a 323e bec6 4e3d c616 0ebe bf79 bc3e
000003c0: 9014 0abd 04e5 103c ce86 273e b9d1 223d
000003d0: 5bb6 f8bc 43b3 fb3c 9710 693e 77a2 6e3e
000003e0: 9e3c 79be ffbb 563d ee8f 413d 6267 77bb
000003f0: fdb7 a8bd da8a 2fbe 2cd9 57bd 6773 a038

feature.1.conv.0.squeeze.conv.weight f4 [16, 32, 1, 1]
-0.27738523 -0.37399945 0.30421564 -0.29638565 -0.1376451 0.070151456 -0.25019968 0.14837052
-0.1130749 0.06591416 -0.02613428 0.22865446 -0.671036 -0.77514786 0.15023492 -0.406252
0.44376925 0.1294937 0.03477288 -0.35504955 0.4499048 0.388151 0.4121035 0.49206567
-0.2851497 -0.0007205762 -0.45721582 -0.4137944 0.001402988 -0.4828261 0.5452135 -0.26213628
-0.47308746 0.18847516 -0.4202687 0.4612446 0.5142642 0.024803488 -0.12787157 -0.16276745
-0.021816334 -0.13158007 -0.25235343 0.18808338 0.09505966 -0.11501014 -0.3220035 -0.17251293
0.07239301 0.75559205 -0.081425466 -0.45192304 0.29995397 -0.19772337 -0.6484027 -0.71036553
0.39067328 0.39295465 0.51251954 0.47570148 -0.29475874 0.2300099 -0.13986605 -0.35351357
-0.15192007 -0.40914017 -0.37714347 -0.12393838 0.26190832 -0.14079972 -0.044946063 -0.64487845
0.3663953 0.07419948 -0.05514238 -0.34317875 -0.30339825 -0.55145615 -0.76685816 -0.3371688
-0.03384228 0.07868333 0.02990987 -0.06319898 -0.0116368355 -0.07419042 -0.5140628 0.08132016
0.6391482 -0.39145505 -0.031053672 -0.38161686 -0.0033706254 -0.3271162 -0.13295445 -0.18032008
0.010453548 -0.6959073 0.546301 0.105351985 -0.42637 -0.14994135 0.30347517 0.36749634
-0.010342285 -0.21555662 -0.03039572 -0.08389973 -0.24843732 0.13010259 0.5618436 0.15876599
-0.49378628 -0.03326733 0.085576214 -0.3556325 -0.0079401815 0.5510789 0.09427801 0.19535613
0.41842887 0.06270889 0.6708949 0.43935895 0.3030386 -0.41730845 0.26622733 -0.43162638
-0.19050364 0.23081405 -0.038897097 0.3863558 -0.3864556 0.22198454 0.2222015 -0.49328643
0.28370002 -0.27912626 -0.21049754 -0.41317055 0.18476579 0.21173906 -0.59753716 -0.20733733
0.03405983 0.039422475 0.42117518 0.7047826 -0.14670996 -0.4356624 0.3370523 0.28875402
-0.013479595 0.0591438 0.33162743 0.1672638 0.4025764 0.0064611454 -0.099237934 0.7138226
-0.44255343 -0.31734374 -0.14684078 -0.26751485 -0.098969 -0.07931916 0.6463022 0.2848979
0.10910074 -0.19440518 -0.3516444 0.60022527 0.4112528 -0.16256745 0.2774484 0.06135276
0.27200696 0.08311211 -0.18601799 -0.5135364 -0.28874305 -0.33681372 0.6010741 0.08452941
0.34865296 -0.1844226 -0.47441384 0.3135835 0.46769172 -0.1136883 0.22888291 0.0045698616
-1.160058 0.028491957 -0.4914956 0.0509487 -0.6123071 0.095375024 0.24861218 -0.7075184
0.29150492 -0.15616253 0.4968646 -0.614284 -0.03366315 -0.08877795 -0.30923396 0.016035508
0.16819465 -0.3397232 0.074573524 -0.6462223 -0.028934982 -0.25481567 0.073824205 0.43657315
0.13788985 0.035387546 -0.07514693 -0.29080388 -0.18511595 -0.08140285 0.17514673 0.18006611
-0.6464454 -0.08004273 -0.22021228 -1.1048608 0.057171118 0.36002487 0.21299262 0.23553386
-0.4892137 0.044404507 0.40158027 0.2070895 -0.6147547 -0.6238031 -0.2507276 0.6166859
0.02201637 -0.29544333 0.108142614 -0.2198798 0.3151601 -0.13877277 -0.19018103 -0.1140201
0.5984536 0.38458285 -0.7849356 -0.4702662 0.08803029 0.023431547 0.21241501 0.041332874
00000000: 7005 8ebe db7c bfbe 27c2 9b3e dcbf 97be
00000010: d6f2 0cbe 91ab 8f3d 2c1a 80be 71ee 173e
00000020: d093 e7bd 01fe 863d 8f17 d6bc 6524 6a3e
00000030: 04c9 2bbf 1770 46bf 2fd7 193e 4300 d0be
00000040: b935 e33e ff99 043e 026e 0e3d 0ec9 b5be
00000050: ec59 e63e babb c63e 3bff d23e 08f0 fb3e
00000060: 24ff 91be 0de5 3cba 3118 eabe dcdc d3be
00000070: 77e4 b73a fc34 f7be 1d93 0b3f ba36 86be
00000080: 8538 f2be a2ff 403e 762d d7be 4128 ec3e
00000090: d2a6 033f af30 cb3c c4f0 02be 83ac 26be
000000a0: 2bb8 b2bc edbc 06be 7834 81be ee98 403e
000000b0: a4ae c23d 708a ebbd a5dd a4be 3ba7 30be
000000c0: c942 943d 7b6e 413f 65c2 a6bd 7562 e7be
000000d0: 9193 993e ff77 4abe b8fd 25bf 84da 35bf
000000e0: 5406 c83e 5a31 c93e 7b34 033f 258f f33e
000000f0: 9eea 96be b787 6b3e 0c39 0fbe bbff b4be
00000100: ef90 1bbe d27a d1be f318 c1be 68d3 fdbd
00000110: d918 863e cd2d 10be 5d19 38bd c116 25bf
00000120: 2a98 bb3e e6f5 973d fadc 61bd 20b5 afbe
00000130: 0457 9bbe 3b2c 0dbf d150 44bf 64a1 acbe
00000140: 349e 0abd ba24 a13d 8b05 f53c 786e 81bd
00000150: 6da8 3ebc 26f1 97bd 9f99 03bf 2f8b a63d
00000160: 379f 233f cc6c c8be 4564 febc 4963 c3be
00000170: b6e5 5cbb c67b a7be 3625 08be d4a5 38be
00000180: 5c45 2b3c fb26 32bf 62da 0b3f c8c2 d73d
00000190: 2b4d dabe 3a8a 19be 1961 9b3e 7b28 bc3e
000001a0: b072 29bc e0ba 5cbe 7200 f9bc 9fd3 abbd
000001b0: 5a66 7ebe 9d39 053e fbd4 0f3f 8d93 223e
000001c0: 8ed1 fcbe 5343 08bd 9542 af3d 7715 b6be
000001d0: 8917 02bc 8213 0d3f d414 c13d 700b 483e
000001e0: 4f3c d63e 856d 803d c5bf 2b3f a8f3 e03e
000001f0: e027 9b3e 74a9 d5be f34e 883e 22fe dcbe
00000200: 6313 43be 855a 6c3e 9052 1fbd 6dd0 c53e
00000210: 82dd c5be ea4f 633e ca88 633e 0a90 fcbe
00000220: 2141 913e a3e9 8ebe ab8c 57be 178b d3be
00000230: 3e33 3d3e 20d2 583e 32f8 18bf 3d50 54be
00000240: 5282 0b3d 7679 213d 46a4 d73e a26c 343f
00000250: 233b 16be 240f dfbe 1e92 ac3e 91d7 933e
00000260: 85d9 5cbc c540 723d 12cb a93e 3447 2b3e
00000270: 7e1e ce3e 04b8 d33b 423d cbbd 14bd 363f
00000280: 5d96 e2be e17a a2be 6e5d 16be b5f7 88be
00000290: 42b0 cabd 1572 a2bd 1074 253f 23de 913e
000002a0: 3570 df3d 2712 47be bc0a b4be 5da8 193f
000002b0: ba8f d23e 1578 26be b70d 8e3e 084d 7b3d
000002c0: 7f44 8b3e af36 aa3d 807b 3ebe 1f77 03bf
000002d0: 21d6 93be d972 acbe fedf 193f c11d ad3d
000002e0: a482 b23e 47d9 3cbe 5fe6 f2be 048e a03e
000002f0: 4a75 ef3e 69d5 e8bd 4860 6a3e c7be 953b
00000300: c87c 94bf f767 e93c 50a5 fbbe 96af 503d
00000310: 28c0 1cbf fb53 c33d 3194 7e3e ed1f 35bf
00000320: 2240 953e 12e9 1fbe 0965 fe3e b741 1dbf
00000330: 5fe2 09bd 37d1 b5bd ea53 9ebe e65c 833c
00000340: 383b 2c3e 33f0 adbe 01ba 983d d36e 25bf
00000350: 0e09 edbc 3377 82be 2531 973d 8486 df3e
00000360: ff32 0d3e 88f2 103d a2e6 99bd 3fe4 94be
00000370: 098f 3dbe 8ab6 a6bd aa59 333e 4063 383e
00000380: 727d 25bf 71ed a3bd 547f 61be 146c 8dbf
00000390: 432c 6a3d 2e55 b83e bd1a 5a3e ca2f 713e
000003a0: 387a fabe 80e1 353d ee9b cd3e 450f 543e
000003b0: 9060 1dbf 8fb1 1fbf 5e5f 80be 21df 1d3f
000003c0: ad5b b43c 5944 97be e079 dd3d 2c28 61be
000003d0: aa5c a13e 731a 0ebe d1be 42be 5f83 e9bd
000003e0: 4134 193f 0be8 c43e 8af1 48bf bbc6 f0be
000003f0: 3a49 b43d 84f3 bf3c 5283 593e a94c 293d

feature.1.conv.0.pointwise.conv.weight f4 [16, 8, 1, 1]
-0.021271816 0.10451425 0.08203543 0.031882703 0.16708219 0.6710726 0.28182384 0.12994081
-0.17866963 -0.38491204 -0.059632987 -0.053845752 -0.5824806 -0.08437565 -0.39093623 0.73998946
0.047779374 0.07030476 0.90088403 -0.8285292 -0.2009 -0.4340313 -0.11811036 0.23442395
-0.48645553 0.09846942 -0.085276954 0.17467347 -0.72285473 0.37146842 -0.5740812 -0.33415276
-0.18708481 -0.34491158 -0.4686165 0.030767774 0.33716127 -0.72734237 -0.22931616 -0.8032944
0.41040772 -0.07414044 -0.23514974 0.46998882 -0.32397747 -0.18765344 0.5490882 -0.46047646
-0.3704304 1.0608015 -0.14120035 -0.66338843 0.32574406 -0.117377475 -0.05862808 -0.16536558
-0.099969044 -0.23248853 0.09525539 0.23611614 0.011002313 0.109796055 -0.49167266 0.5915775
0.13435587 -0.4603683 -0.16930124 -0.55201757 0.105601124 -0.2013161 -0.17333636 0.5241711
1.2476087 0.027636942 -0.05226429 -0.13416483 -0.31325954 -0.24662288 0.00167073 0.011181853
-0.36516887 -0.15394913 -0.3503529 0.2801184 -0.15219004 -0.20255256 0.8290262 0.43077683
-0.25682238 0.25418448 0.7166504 0.14918011 -0.1035768 0.0055657714 -0.00803558 0.57204664
-0.5812482 0.13208838 -0.6424334 0.6935211 -0.22751737 -0.31299266 0.30801156 0.27124625
-1.0702832 -0.58069026 -0.5727655 -0.64277035 -0.2137541 0.1215619 0.103780605 -1.4490391
0.21326986 -0.11417605 -0.079667404 0.49617517 0.90442747 -0.2891971 0.27768525 -0.55979574
0.2118457 -1.0659394 -0.3749398 0.051971544 -0.028807556 -0.36712322 0.07783794 -1.098527
00000000: 3b42 aebc 910b d63d 3102 a83d 7097 023d
00000010: 9817 2b3e 6acb 2b3f 374b 903e 340f 053e
00000020: 2cf5 36be 3113 c5be b841 74bd 5d8d 5cbd
00000030: 731d 15bf 24cd acbd cb28 c8be f36f 3d3f
00000040: 4eb4 433d f1fb 8f3d 56a0 663f 7d1a 54bf
00000050: bbb8 4dbe 5a39 debe d8e3 f1bd d50c 703e
00000060: b310 f9be 56aa c93d afa5 aebd 9add 323e
00000070: 020d 39bf 1c31 be3e fcf6 12bf 1216 abbe
00000080: 2993 3fbe 4098 b0be 80ee efbe b30c fc3c
00000090: 67a0 ac3e 1c33 3abf dbd1 6abe b4a4 4dbf
000000a0: f620 d23e f1d6 97bd 18cb 70be 60a2 f03e
000000b0: 60e0 a5be 3928 40be 0b91 0c3f 92c3 ebbe
000000c0: 0ea9 bdbe 58c8 873f d396 10be d3d3 29bf
000000d0: edc7 a63e 9a63 f0bd ff23 70bd 9855 29be
000000e0: 92bc ccbd 7911 6ebe 4215 c33d 6ec8 713e
000000f0: 0c43 343c c1dc e03d 85bc fbbe 9f71 173f
00000100: 9694 093e 65b5 ebbe 4e5d 2dbe 0651 0dbf
00000110: 6745 d83d cf25 4ebe 167f 31be 1430 063f
00000120: a4b1 9f3f de66 e23c 1513 56bd 8162 09be
00000130: 8e63 a0be b58a 7cbe 65fc da3a 1734 373c
00000140: 6af7 babe d7a4 1dbe 7561 b3be ae6b 8f3e
00000150: b5d7 1bbe f069 4fbe 103b 543f c88e dc3e
00000160: 397e 83be 7824 823e 6776 373f acc2 183e
00000170: 1320 d4bd 1361 b63b aaa7 03bc a671 123f
00000180: afcc 14bf 2d42 073e 8476 24bf 998a 313f
00000190: 50fa 68be 9340 a0be b1b3 9d3e cae0 8a3e
000001a0: 0aff 88bf 1ea8 14bf c3a0 12bf 998c 24bf
000001b0: 5be2 5abe 72f5 f83d ed8a d43d 1d7a b9bf
000001c0: 6a63 5a3e 22d5 e9bd aa28 a3bd ac0a fe3e
000001d0: 8f88 673f a411 94be c32c 8e3e c64e 0fbf
000001e0: 14ee 583e b470 88bf 1cf8 bfbe 1de0 543d
000001f0: d3fd ebbc 93f7 bbbe 7f69 9f3d 889c 8cbf

feature.2.conv.0.conv1.conv.weight f4 [32, 16, 3, 3]
-0.27260637 -0.30916005 -0.09399636 -0.07075922 -0.19741556 -0.06181528 0.25563765 0.27764487
0.17816053 -0.08568555 -0.29722136 -0.11189195 0.107694104 -0.19404694 -0.223077 0.20219465
0.2946487 0.19820175 -0.07960371 -0.14888427 -0.14453828 -0.025620347 -0.10143346 -0.09538756
-0.10372873 -0.027042843 -0.057027455 0.042610463 0.16385451 0.27284452 0.1400122 0.1377369
0.07404146 0.23128603 0.21476665 0.17741457 -0.006706659 0.16465864 0.14562781 -0.025624324
-0.099599905 -0.106997825 -0.16859432 -0.08020882 -0.08202644 -0.17326374 -0.19803964 -0.12640586
-0.13812703 -0.078827105 -0.05095613 0.0071761403 0.15840714 0.22385845 -0.1576551 -0.05984241
-0.092834644 -0.036784504 -0.044855457 -0.14829011 0.2417598 0.41000944 -0.017799407 -0.07498002
-0.25447926 -0.054965958 -0.046861224 -0.16506335 0.05724437 0.06869133 -0.039382085 -0.0119470265
-0.010812589 0.07348706 -0.22319931 0.09844567 -0.009344492 0.051565975 0.40260044 0.28265193
0.14910561 -0.16499574 -0.23091783 -0.20414722 -0.314509 -0.42176846 -0.13667431 0.06261566
0.11900582 -0.03725074 0.08162765 0.09740653 -0.12417458 0.27996302 -0.07497208 0.032423545
0.074108765 -0.02324412 0.029553695 -0.035860524 -0.09606931 0.034538902 -0.044108983 -0.0076971822
0.012518881 -0.19252127 0.014091835 0.19310507 -0.2259851 -0.0856635 -0.05121533 -0.18116483
-0.2397777 -0.029901136 0.077997744 0.2825708 0.17199254 0.014038945 -0.17263076 -0.10881282
0.16336036 -0.022124344 0.015930569 -0.081305 0.096970074 -0.11241439 0.061349083 0.12770167
0.17840315 -0.11096943 -0.024731241 0.11964957 -0.28995043 0.06033001 0.036610518 -0.3147207
-0.22331947 -0.14842778 -0.21097334 -0.043340232 -0.093083136 0.07810265 -0.04532928 0.2344375
0.10390588 -0.23022982 -0.3237801 0.5413606 0.15109982 -0.058335893 0.39624667 0.019815769
-0.13846016 0.055838816 -0.1318589 -0.05389321 -0.29319122 -0.35293996 0.02312163 -0.22877553
-0.097855456 0.0296051 0.1457973 0.23373204 -0.08832283 0.20657781 0.2046166 0.01468992
-0.15975954 0.09514675 0.06384246 -0.10821463 -0.25702855 -0.1919496 -0.07820503 -0.19982488
-0.012592446 -0.29031536 -0.24669825 -0.18813838 -0.044059124 -0.11897784 0.25258783 -0.029276447
-0.10913792 0.16315526 0.091233134 0.012617739 -0.03964863 0.03748782 0.01838282 0.025006425
-0.06108673 -0.11929035 0.08989744 -0.08664789 0.04528907 -0.0068662716 -0.019119529 -0.08270246
-0.055388853 0.4648348 0.3203621 -0.070696905 0.05681516 -0.04546818 -0.1317414 -0.32734275
-0.29644728 -0.29859886 -0.007109638 -0.07562284 0.20451842 0.07216305 0.2125766 0.26538542
0.009507802 -0.07084301 0.02898298 0.09185909 -0.2787775 -0.28033242 0.23366766 0.17222832
-0.101867095 0.34009758 0.05541541 0.14037472 0.15182313 0.10550234 0.2044951 0.03163568
-0.10087977 -0.13204582 -0.19853483 -0.11959273 -0.079858825 0.33345538 0.121742524 0.14652954
0.07269835 0.014610176 -0.12724967 -0.021589244 0.0032296395 -0.21731192 0.29166758 0.42508972
0.29535022 -0.19508243 0.1068763 0.14384794 0.14210396 0.07332201 0.15229805 -0.054346297
00000000: 1093 8bbe 3a4a 9ebe 2a81 c0bd 36ea 90bd
00000010: 4e27 4abe 0532 7dbd f0e2 823e 7827 8e3e
00000020: b76f 363e e87b afbd 662d 98be 9b27 e5bd
00000030: ba8e dc3d 3eb4 46be 4c6e 64be 1d0c 4f3e
00000040: 32dc 963e 66f5 4a3e 4507 a3bd 1e75 18be
00000050: d801 14be c3e1 d1bc 59bc cfbd 8e5a c3bd
00000060: ba6f d4bd f488 ddbc 9f95 69bd 4f88 2e3d
00000070: 7ac9 273e 47b2 8b3e 5c5f 0f3e e70a 0d3e
00000080: 0da3 973d 3fd6 6c3e caeb 5b3e 2aac 353e
00000090: 89c3 dbbb 469c 283e 751f 153e 1aea d1bc
000000a0: 09fb cbbd ad21 dbbd fda3 2cbe 8644 a4bd
000000b0: 7afd a7bd 0d6c 31be e7ca 4abe 8a70 01be
000000c0: 2c71 0dbe 1b70 a1bd 60b7 50bd d425 eb3b
000000d0: 7b35 223e 263b 653e 5770 21be 511d 75bd
000000e0: 1720 bebd 59ab 16bd 5bba 37bd 5dd9 17be
000000f0: e28f 773e c2ec d13e 10d0 91bc 208f 99bd
00000100: 1b4b 82be fc23 61bd 8ef1 3fbd 5e06 29be
00000110: 1379 6a3d 0aae 8c3d 1c4f 21bd 76bd 43bc
00000120: 4927 31bc 6280 963d 5c8e 64be e29d c93d
00000130: a419 19bc d836 533d a521 ce3e c1b7 903e
00000140: 24af 183e a5f4 28be b975 6cbe f80b 51be
00000150: 5307 a1be 09f2 d7be 5af4 0bbe a43c 803d
00000160: 53b9 f33d 3b94 18bd 662c a73d 137d c73d
00000170: 3e4f febd 5057 8f3e f68a 99bd 8dce 043d
00000180: 56c6 973d 746a bebc 971a f23c 7ce2 12bd
00000190: fdbf c4bd aa78 0d3d 9fab 34bd a538 fcbb
000001a0: fe1b 4d3c 4c24 45be 71e1 663c 56bd 453e
000001b0: a368 67be 5870 afbd 2ac7 51bd 4683 39be
000001c0: 4988 75be 3af3 f4bc 48bd 9f3d 1fad 903e
000001d0: d01e 303e 9a03 663c 1ec6 30be 41d9 debd
000001e0: f047 273e 1d3e b5bc d380 823c 3c83 a6bd
000001f0: 3f98 c63d 8439 e6bd 2d49 7b3d 3ac4 023e
00000200: 51af 363e f143 e3bd 2c99 cabc d50a f53d
00000210: 6274 94be 9a1c 773d e9f4 153d 1223 a1be
00000220: dcad 64be 74fd 17be 6509 58be 8785 31bd
00000230: 5fa2 bebd 48f4 9f3d 32ab 39bd 6210 703e
00000240: 9bcc d43d 5ec1 6bbe 81c6 a5be 9c96 0a3f
00000250: e9b9 1a3e 9ef1 6ebd d8e0 ca3e ae54 a23c
00000260: 80c8 0dbe 3eb7 643d 0506 07be 20bf 5cbd
00000270: 291d 96be 8cb4 b4be 9369 bd3c 2244 6abe
00000280: 7168 c8bd 6586 f23c e34b 153e 7457 6f3e
00000290: 9ae2 b4bd 2289 533e 0487 513e fdad 703c
000002a0: 0198 23be 4ddc c23d d6bf 823d a29f ddbd
000002b0: 3f99 83be 708e 44be f529 a0bd e59e 4cbe
000002c0: 8c50 4ebc 37a4 94be 779e 7cbe 59a7 40be
000002d0: 5777 34bd a7aa f3bd 3153 813e 29d5 efbc
000002e0: b483 dfbd 2c12 273e 70d8 ba3d a2ba 4e3c
000002f0: 9a66 22bd d48c 193d 9197 963c 46da cc3c
00000300: 1436 7abd 804e f4bd 261c b83d 7374 b1bd
00000310: 0881 393d 76fe e0bb 8fa0 9cbc e85f a9bd
00000320: 6cdf 62bd d4fe ed3e 8006 a43e 8ac9 90bd
00000330: 03b7 683d d83c 3abd 38e7 06be 7899 a7be
00000340: f0c7 97be f3e1 98be f7f7 e8bb 26e0 9abd
00000350: 476d 513e 39ca 933d aead 593e 99e0 873e
00000360: 9dc6 1b3c 2416 91bd b76d ed3c 9e20 bc3d
00000370: edbb 8ebe bb87 8fbe 9346 6f3e 9f5c 303e
00000380: b29f d0bd 4521 ae3e 45fb 623d 64be 0f3e
00000390: 8677 1b3e 9c11 d83d 2a67 513e 6a94 013d
000003a0: 0e9a cebd 0537 07be b74c 4bbe 09ed f4bd
000003b0: 068d a3bd aaba aa3e 2554 f93d d70b 163e
000003c0: dfe2 943d 855f 6f3c bd4d 02be eddb b0bc
000003d0: 5ca8 533b 0487 5ebe 7455 953e 5ca5 d93e
000003e0: 2538 973e b0c3 47be f6e1 da3d e04c 133e
000003f0: b383 113e da29 963d 05f4 1b3e 399a 5ebd

feature.2.conv.0.conv2.conv.weight f4 [64, 32, 3, 3]
-0.12476566 -0.16271335 -0.08569375 0.0067132404 0.02095372 -0.034576003 -0.012239873 -0.022930987
-0.09331647 0.20191616 0.2422903 0.2614661 0.19446582 0.15060738 0.35183722 0.081861794
-0.028684879 -0.115677685 0.13344133 0.051944133 0.2571005 -0.024130411 -0.091249675 0.0029490443
0.04062166 0.08517642 0.14905179 -0.08071674 -0.041849032 -0.09546508 0.07053536 -0.15064803
-0.12299589 -0.0033699828 -0.12306074 -0.14375487 -0.13458967 -0.08270587 -0.06806659 -0.0025602826
-0.0059908107 -0.06418643 -0.023515215 0.07338248 0.008380389 -0.13476089 -0.14517541 -0.122734465
0.048621207 0.008433521 -0.024449555 0.17430747 0.062277406 0.16856179 -0.028720334 -0.05815344
-0.03737422 0.07873811 0.11318849 0.08074907 -0.18842809 -0.2327582 -0.12780872 -0.12342739
-0.087623134 -0.15959054 0.0076675666 -9.27371e-05 0.017734332 0.018351285 0.05215031 0.15920453
-0.08183234 0.11834587 0.05338817 0.050679464 0.016814873 0.04869104 0.08474323 0.15196799
0.07421664 0.0016203931 -0.2041675 -0.13471454 0.0055726618 -0.06699721 0.05867281 -0.052261043
-0.11651677 -0.044975378 0.038968343 0.08987012 -0.0550811 0.06648108 -0.018007852 0.06481512
-0.08820486 -0.12895437 -0.0041054054 0.12222999 -0.022670915 -0.0034033372 0.055137284 -0.11851693
-0.031745113 0.09076524 -0.03518544 0.028250748 -0.12198522 -0.15578605 -0.10999248 0.09013402
-0.015769891 -0.0268273 0.10681983 0.061524633 0.090150885 -0.014524604 -0.033555903 -0.008491459
0.011322718 0.16707623 0.21152249 0.101988666 0.18418325 0.227678 -0.14635478 -0.16015472
-0.052296635 -0.0067173336 -0.048733693 -0.05016285 0.17680497 0.075438276 0.16689275 -0.019837024
-0.09650853 0.098756135 -0.0037398927 -0.04154971 -0.027890764 -0.11033953 -0.046232127 -0.19784854
-0.14197199 -0.02299619 0.051309753 0.054663077 0.22689903 0.21693335 0.10264915 0.10943861
0.12775865 -0.0017375834 -0.008480958 -0.045994382 -0.045217704 0.055344827 0.05465346 -0.13604215
-0.054378767 -0.053042073 0.06456577 0.23847592 0.24381688 -0.052485306 -0.035839967 0.10719129
0.0028928425 0.12788436 0.24029131 0.07635298 0.12918557 0.06311473 0.006585447 -0.04926732
-0.068194546 0.046635833 -0.10003992 0.015620888 0.07687071 -0.04397579 -0.015012311 0.15341745
0.15835445 0.060773797 -0.019890929 -0.04131472 0.03040256 0.01495537 -0.11795373 -0.14473647
0.04655383 -0.046700314 -0.0015558607 -0.05165595 0.06599643 0.09685862 -0.16086023 -0.0757864
2.4589881e-05 -0.111866094 -0.10300459 0.03521701 -0.10027377 -0.1598594 -0.070817485 0.14708851
-0.09353484 -0.08124177 -0.04360828 -0.072559 -0.12960087 0.047194652 0.04514766 -0.06938456
0.057260904 0.087439746 -0.02295347 0.13042799 0.07154532 -0.017096607 -0.08018986 0.0029002936
1.0524273e-05 0.17055741 -0.023246938 0.006168941 -0.039513126 0.009986693 -0.0723415 0.0007388759
0.063208714 0.11600456 -0.20005481 -0.15595508 -0.057044778 0.04437836 0.077312924 0.08960759
-0.09300005 -0.15886797 -0.17920451 0.17585747 -0.16306044 0.035813294 -0.044127174 -0.11520961
-0.07420436 -0.1141565 -0.017972723 -0.08027926 -0.070716776 -0.14347872 -0.104737096 0.073819764
00000000: 2385 ffbd 549e 26be 3480 afbd befa db3b
00000010: 23a7 ab3c 919f 0dbd c089 48bc c4d9 bbbc
00000020: b51c bfbd 1cc3 4e3e f31a 783e e2de 853e
00000030: 0c22 473e d238 1a3e 0224 b43e 28a7 a73d
00000040: 8dfc eabc 6ce8 ecbd d8a4 083e 5fc3 543d
00000050: ada2 833e 24ad c5bc 1ce1 babd c144 413b
00000060: e662 263d fa70 ae3d 08a1 183e d14e a5bd
00000070: e469 2bbd 3283 c3bd d874 903d 7a43 1abe
00000080: 45e5 fbbd eeda 5cbb 4507 fcbd 7a34 13be
00000090: e0d1 09be b261 a9bd 7f66 8bbd 6aca 27bb
000000a0: 904e c4bb 2d74 83bd fba2 c0bc 8e49 963d
000000b0: e64d 093c c2fe 09be dda8 14be 355c fbbd
000000c0: 0827 473d c02c 0a3c 6f4a c8bc a87d 323e
000000d0: 9816 7f3d 769b 2c3e e846 ebbc 4d32 6ebd
000000e0: b615 19bd 7241 a13d 5ecf e73d c55f a53d
000000f0: 4bf3 40be 2a58 6ebe 4ae0 02be 80c7 fcbd
00000100: c273 b3bd b46b 23be 3640 fb3b da7b c2b8
00000110: 9747 913c 6f55 963c 909b 553d 8306 233e
00000120: b797 a7bd 525f f23d 8ead 5a3d 4595 4f3d
00000130: 58bf 893c 4270 473d dc8d ad3d 7f9d 1b3e
00000140: e5fe 973d 5f63 d43a 4911 51be 9cf2 09be
00000150: e09a b63b d535 89bd e752 703d ad0f 56bd
00000160: 58a0 eebd 1a38 38bd 459d 1f3d d30d b83d
00000170: b89c 61bd 3c27 883d 3485 93bc cabd 843d
00000180: c0a4 b4bd 9d0c 04be a386 86bb b853 fa3d
00000190: 5bb8 b9bc 860a 5fbb a2d7 613d 01b9 f2bd
000001a0: 2a07 02bd 20e3 b93d 9c1e 10bd 1d6e e73c
000001b0: 63d3 f9bd 6186 1fbe bd43 e1bd 2f98 b83d
000001c0: dc2f 81bc edc4 dbbc 5bc4 da3d 4101 7c3d
000001d0: 07a1 b83d 9bf8 6dbc ea71 09bd c31f 0bbc
000001e0: ec82 393c 0816 2b3e 5a99 583e 6fdf d03d
000001f0: 899a 3c3e 6c24 693e 07de 15be 99ff 23be
00000200: ff34 56bd 141d dcbb fb9c 47bd 9077 4dbd
00000210: 5d0c 353e 627f 9a3d efe5 2a3e 4181 a2bc
00000220: 44a6 c5bd a840 ca3d fd18 75bb 0730 2abd
00000230: 2c7b e4bc b1f9 e1bd e65d 3dbd cf98 4abe
00000240: 1b61 11be 8162 bcbc 2d2a 523d 64e6 5f3d
00000250: 3858 683e c723 5e3e b839 d23d 5a21 e03d
00000260: 2ad3 023e a0bf e3ba b7f3 0abc 9b64 3cbd
00000270: 3336 39bd 42b1 623d 4edc 5f3d a24e 0bbe
00000280: 45bc 5ebd a542 59bd 0f3b 843d 0833 743e
00000290: 22ab 793e d5fa 56bd eecc 12bd 1b87 db3d
000002a0: d895 3d3b 1ef4 023e ed0e 763e f45e 9c3d
000002b0: 3949 043e 4c42 813d bcca d73b 88cc 49bd
000002c0: 95a9 8bbd 3705 3f3d bbe1 ccbd c1ee 7f3c
000002d0: 646e 9d3d f51f 34bd 32f6 75bc 7719 1d3e
000002e0: ab27 223e f2ed 783d 4df2 a2bc a039 29bd
000002f0: ca0e f93c 5e07 753c ba91 f1bd cc35 14be
00000300: 3baf 3e3d d448 3fbd 06ee cbba 3095 53bd
00000310: 2329 873d d05d c63d 8bb8 24be e635 9bbd
00000320: 5e46 ce37 0d1a e5bd 12f4 d2bd b63f 103d
00000330: 565c cdbd 2fb2 23be c208 91bd 5f9e 163e
00000340: 328f bfbd 1662 a6bd 999e 32bd d099 94bd
00000350: 17b6 04be 2e4f 413d c1ec 383d 7e19 8ebd
00000360: 698a 6a3d 9c13 b33d ea08 bcbc ea8e 053e
00000370: 5a86 923d 2f0e 8cbc 953a a4bd da12 3e3b
00000380: 6991 3037 9aa6 2e3e 5d70 bebc d424 ca3b
00000390: 84d8 21bd 3a9f 233c c827 94bd 1fb1 413a
000003a0: 9273 813d cc93 ed3d 2bdb 4cbe b0b2 1fbe
000003b0: c9a7 69bd 15c6 353d 3d56 9e3d 2f84 b73d
000003c0: cf76 bebd 49ae 22be 6381 37be fb13 343e
000003d0: 51f9 26be f6b0 123d b2be 34bd 04f3 ebbd
000003e0: 75f8 97bd e2ca e9bd 883b 93bc 7469 a4bd
000003f0: f5d3 90bd 16ec 12be 6780 d6bd d12e 973d
